…
2025-07-11 17:10:16.806511: I tensorflow/core/platform/cpu_feature_guard.cc:210] This TensorFlow binary is optimized to use available CPU instructions in performance-critical operations.
To enable the following instructions: AVX2 FMA, in other operations, rebuild TensorFlow with the appropriate compiler flags.
2025-07-11 17:10:19.301151: E external/local_xla/xla/stream_executor/cuda/cuda_platform.cc:51] failed call to cuInit: INTERNAL: CUDA error: Failed call to cuInit: CUDA_ERROR_NO_DEVICE: no CUDA-capable device is detected
Disparity Architecture Used: hitnet 
HITNet(
  (feature_extractor): feature_extraction_conv(
    (conv1x_0): Sequential(
      (0): Sequential(
        (0): Conv2d(3, 16, kernel_size=(3, 3), stride=(1, 1), padding=(1, 1), bias=False)
        (1): BatchNorm2d(16, eps=1e-05, momentum=0.1, affine=True, track_running_stats=True)
        (2): LeakyReLU(negative_slope=0.2, inplace=True)
      )
      (1): Sequential(
        (0): Conv2d(16, 16, kernel_size=(3, 3), stride=(1, 1), padding=(1, 1), bias=False)
        (1): BatchNorm2d(16, eps=1e-05, momentum=0.1, affine=True, track_running_stats=True)
        (2): LeakyReLU(negative_slope=0.2, inplace=True)
      )
    )
    (conv2x_0): Sequential(
      (0): Sequential(
        (0): Conv2d(16, 16, kernel_size=(2, 2), stride=(2, 2), bias=False)
        (1): BatchNorm2d(16, eps=1e-05, momentum=0.1, affine=True, track_running_stats=True)
        (2): LeakyReLU(negative_slope=0.2, inplace=True)
      )
      (1): Sequential(
        (0): Conv2d(16, 16, kernel_size=(3, 3), stride=(1, 1), padding=(1, 1), bias=False)
        (1): BatchNorm2d(16, eps=1e-05, momentum=0.1, affine=True, track_running_stats=True)
        (2): LeakyReLU(negative_slope=0.2, inplace=True)
      )
      (2): Sequential(
        (0): Conv2d(16, 16, kernel_size=(3, 3), stride=(1, 1), padding=(1, 1), bias=False)
        (1): BatchNorm2d(16, eps=1e-05, momentum=0.1, affine=True, track_running_stats=True)
        (2): LeakyReLU(negative_slope=0.2, inplace=True)
      )
    )
    (conv4x_0): Sequential(
      (0): Sequential(
        (0): Conv2d(16, 24, kernel_size=(2, 2), stride=(2, 2), bias=False)
        (1): BatchNorm2d(24, eps=1e-05, momentum=0.1, affine=True, track_running_stats=True)
        (2): LeakyReLU(negative_slope=0.2, inplace=True)
      )
      (1): Sequential(
        (0): Conv2d(24, 24, kernel_size=(3, 3), stride=(1, 1), padding=(1, 1), bias=False)
        (1): BatchNorm2d(24, eps=1e-05, momentum=0.1, affine=True, track_running_stats=True)
        (2): LeakyReLU(negative_slope=0.2, inplace=True)
      )
      (2): Sequential(
        (0): Conv2d(24, 24, kernel_size=(3, 3), stride=(1, 1), padding=(1, 1), bias=False)
        (1): BatchNorm2d(24, eps=1e-05, momentum=0.1, affine=True, track_running_stats=True)
        (2): LeakyReLU(negative_slope=0.2, inplace=True)
      )
    )
    (conv8x_0): Sequential(
      (0): Sequential(
        (0): Conv2d(24, 24, kernel_size=(2, 2), stride=(2, 2), bias=False)
        (1): BatchNorm2d(24, eps=1e-05, momentum=0.1, affine=True, track_running_stats=True)
        (2): LeakyReLU(negative_slope=0.2, inplace=True)
      )
      (1): Sequential(
        (0): Conv2d(24, 24, kernel_size=(3, 3), stride=(1, 1), padding=(1, 1), bias=False)
        (1): BatchNorm2d(24, eps=1e-05, momentum=0.1, affine=True, track_running_stats=True)
        (2): LeakyReLU(negative_slope=0.2, inplace=True)
      )
      (2): Sequential(
        (0): Conv2d(24, 24, kernel_size=(3, 3), stride=(1, 1), padding=(1, 1), bias=False)
        (1): BatchNorm2d(24, eps=1e-05, momentum=0.1, affine=True, track_running_stats=True)
        (2): LeakyReLU(negative_slope=0.2, inplace=True)
      )
    )
    (conv16x_0): Sequential(
      (0): Sequential(
        (0): Conv2d(24, 32, kernel_size=(2, 2), stride=(2, 2), bias=False)
        (1): BatchNorm2d(32, eps=1e-05, momentum=0.1, affine=True, track_running_stats=True)
        (2): LeakyReLU(negative_slope=0.2, inplace=True)
      )
      (1): Sequential(
        (0): Conv2d(32, 32, kernel_size=(3, 3), stride=(1, 1), padding=(1, 1), bias=False)
        (1): BatchNorm2d(32, eps=1e-05, momentum=0.1, affine=True, track_running_stats=True)
        (2): LeakyReLU(negative_slope=0.2, inplace=True)
      )
      (2): Sequential(
        (0): Conv2d(32, 32, kernel_size=(3, 3), stride=(1, 1), padding=(1, 1), bias=False)
        (1): BatchNorm2d(32, eps=1e-05, momentum=0.1, affine=True, track_running_stats=True)
        (2): LeakyReLU(negative_slope=0.2, inplace=True)
      )
    )
    (conv16_8x_0): unetUp(
      (up_conv1): Sequential(
        (0): ConvTranspose2d(32, 16, kernel_size=(2, 2), stride=(2, 2), bias=False)
        (1): BatchNorm2d(16, eps=1e-05, momentum=0.1, affine=True, track_running_stats=True)
        (2): LeakyReLU(negative_slope=0.2, inplace=True)
      )
      (reduce_conv2): Sequential(
        (0): Conv2d(40, 24, kernel_size=(1, 1), stride=(1, 1), bias=False)
        (1): BatchNorm2d(24, eps=1e-05, momentum=0.1, affine=True, track_running_stats=True)
        (2): LeakyReLU(negative_slope=0.2, inplace=True)
      )
      (conv): Sequential(
        (0): Sequential(
          (0): Conv2d(24, 24, kernel_size=(3, 3), stride=(1, 1), padding=(1, 1), bias=False)
          (1): BatchNorm2d(24, eps=1e-05, momentum=0.1, affine=True, track_running_stats=True)
          (2): LeakyReLU(negative_slope=0.2, inplace=True)
        )
      )
    )
    (conv8_4x_0): unetUp(
      (up_conv1): Sequential(
        (0): ConvTranspose2d(24, 12, kernel_size=(2, 2), stride=(2, 2), bias=False)
        (1): BatchNorm2d(12, eps=1e-05, momentum=0.1, affine=True, track_running_stats=True)
        (2): LeakyReLU(negative_slope=0.2, inplace=True)
      )
      (reduce_conv2): Sequential(
        (0): Conv2d(36, 24, kernel_size=(1, 1), stride=(1, 1), bias=False)
        (1): BatchNorm2d(24, eps=1e-05, momentum=0.1, affine=True, track_running_stats=True)
        (2): LeakyReLU(negative_slope=0.2, inplace=True)
      )
      (conv): Sequential(
        (0): Sequential(
          (0): Conv2d(24, 24, kernel_size=(3, 3), stride=(1, 1), padding=(1, 1), bias=False)
          (1): BatchNorm2d(24, eps=1e-05, momentum=0.1, affine=True, track_running_stats=True)
          (2): LeakyReLU(negative_slope=0.2, inplace=True)
        )
      )
    )
    (conv4_2x_0): unetUp(
      (up_conv1): Sequential(
        (0): ConvTranspose2d(24, 12, kernel_size=(2, 2), stride=(2, 2), bias=False)
        (1): BatchNorm2d(12, eps=1e-05, momentum=0.1, affine=True, track_running_stats=True)
        (2): LeakyReLU(negative_slope=0.2, inplace=True)
      )
      (reduce_conv2): Sequential(
        (0): Conv2d(28, 16, kernel_size=(1, 1), stride=(1, 1), bias=False)
        (1): BatchNorm2d(16, eps=1e-05, momentum=0.1, affine=True, track_running_stats=True)
        (2): LeakyReLU(negative_slope=0.2, inplace=True)
      )
      (conv): Sequential(
        (0): Sequential(
          (0): Conv2d(16, 16, kernel_size=(3, 3), stride=(1, 1), padding=(1, 1), bias=False)
          (1): BatchNorm2d(16, eps=1e-05, momentum=0.1, affine=True, track_running_stats=True)
          (2): LeakyReLU(negative_slope=0.2, inplace=True)
        )
      )
    )
    (conv2_1x_0): unetUp(
      (up_conv1): Sequential(
        (0): ConvTranspose2d(16, 8, kernel_size=(2, 2), stride=(2, 2), bias=False)
        (1): BatchNorm2d(8, eps=1e-05, momentum=0.1, affine=True, track_running_stats=True)
        (2): LeakyReLU(negative_slope=0.2, inplace=True)
      )
      (reduce_conv2): Sequential(
        (0): Conv2d(24, 16, kernel_size=(1, 1), stride=(1, 1), bias=False)
        (1): BatchNorm2d(16, eps=1e-05, momentum=0.1, affine=True, track_running_stats=True)
        (2): LeakyReLU(negative_slope=0.2, inplace=True)
      )
      (conv): Sequential(
        (0): Sequential(
          (0): Conv2d(16, 16, kernel_size=(3, 3), stride=(1, 1), padding=(1, 1), bias=False)
          (1): BatchNorm2d(16, eps=1e-05, momentum=0.1, affine=True, track_running_stats=True)
          (2): LeakyReLU(negative_slope=0.2, inplace=True)
        )
      )
    )
    (last_conv_1x): Conv2d(16, 16, kernel_size=(1, 1), stride=(1, 1), bias=False)
    (last_conv_2x): Conv2d(16, 16, kernel_size=(1, 1), stride=(1, 1), bias=False)
    (last_conv_4x): Conv2d(24, 24, kernel_size=(1, 1), stride=(1, 1), bias=False)
    (last_conv_8x): Conv2d(24, 24, kernel_size=(1, 1), stride=(1, 1), bias=False)
    (last_conv_16x): Conv2d(32, 32, kernel_size=(1, 1), stride=(1, 1), bias=False)
  )
  (tile_init): INIT(
    (tile_conv1x): Sequential(
      (0): Sequential(
        (0): Conv2d(16, 16, kernel_size=(4, 4), stride=(4, 4), bias=False)
        (1): BatchNorm2d(16, eps=1e-05, momentum=0.1, affine=True, track_running_stats=True)
        (2): LeakyReLU(negative_slope=0.2, inplace=True)
      )
      (1): Conv2d(16, 16, kernel_size=(1, 1), stride=(1, 1), bias=False)
    )
    (tile_conv2x): Sequential(
      (0): Sequential(
        (0): Conv2d(16, 16, kernel_size=(4, 4), stride=(4, 4), bias=False)
        (1): BatchNorm2d(16, eps=1e-05, momentum=0.1, affine=True, track_running_stats=True)
        (2): LeakyReLU(negative_slope=0.2, inplace=True)
      )
      (1): Conv2d(16, 16, kernel_size=(1, 1), stride=(1, 1), bias=False)
    )
    (tile_conv4x): Sequential(
      (0): Sequential(
        (0): Conv2d(24, 24, kernel_size=(4, 4), stride=(4, 4), bias=False)
        (1): BatchNorm2d(24, eps=1e-05, momentum=0.1, affine=True, track_running_stats=True)
        (2): LeakyReLU(negative_slope=0.2, inplace=True)
      )
      (1): Conv2d(24, 24, kernel_size=(1, 1), stride=(1, 1), bias=False)
    )
    (tile_conv8x): Sequential(
      (0): Sequential(
        (0): Conv2d(24, 24, kernel_size=(4, 4), stride=(4, 4), bias=False)
        (1): BatchNorm2d(24, eps=1e-05, momentum=0.1, affine=True, track_running_stats=True)
        (2): LeakyReLU(negative_slope=0.2, inplace=True)
      )
      (1): Conv2d(24, 24, kernel_size=(1, 1), stride=(1, 1), bias=False)
    )
    (tile_conv16x): Sequential(
      (0): Sequential(
        (0): Conv2d(32, 32, kernel_size=(4, 4), stride=(4, 4), bias=False)
        (1): BatchNorm2d(32, eps=1e-05, momentum=0.1, affine=True, track_running_stats=True)
        (2): LeakyReLU(negative_slope=0.2, inplace=True)
      )
      (1): Conv2d(32, 32, kernel_size=(1, 1), stride=(1, 1), bias=False)
    )
    (tile_fea_dscrpt16x): Sequential(
      (0): Conv2d(33, 13, kernel_size=(1, 1), stride=(1, 1), bias=False)
      (1): BatchNorm2d(13, eps=1e-05, momentum=0.1, affine=True, track_running_stats=True)
      (2): LeakyReLU(negative_slope=0.2, inplace=True)
    )
    (tile_fea_dscrpt8x): Sequential(
      (0): Conv2d(25, 13, kernel_size=(1, 1), stride=(1, 1), bias=False)
      (1): BatchNorm2d(13, eps=1e-05, momentum=0.1, affine=True, track_running_stats=True)
      (2): LeakyReLU(negative_slope=0.2, inplace=True)
    )
    (tile_fea_dscrpt4x): Sequential(
      (0): Conv2d(25, 13, kernel_size=(1, 1), stride=(1, 1), bias=False)
      (1): BatchNorm2d(13, eps=1e-05, momentum=0.1, affine=True, track_running_stats=True)
      (2): LeakyReLU(negative_slope=0.2, inplace=True)
    )
    (tile_fea_dscrpt2x): Sequential(
      (0): Conv2d(17, 13, kernel_size=(1, 1), stride=(1, 1), bias=False)
      (1): BatchNorm2d(13, eps=1e-05, momentum=0.1, affine=True, track_running_stats=True)
      (2): LeakyReLU(negative_slope=0.2, inplace=True)
    )
    (tile_fea_dscrpt1x): Sequential(
      (0): Conv2d(17, 13, kernel_size=(1, 1), stride=(1, 1), bias=False)
      (1): BatchNorm2d(13, eps=1e-05, momentum=0.1, affine=True, track_running_stats=True)
      (2): LeakyReLU(negative_slope=0.2, inplace=True)
    )
    (_build_volume_2d16x): BuildVolume2d()
    (_build_volume_2d8x): BuildVolume2d()
    (_build_volume_2d4x): BuildVolume2d()
    (_build_volume_2d2x): BuildVolume2d()
    (_build_volume_2d1x): BuildVolume2d()
  )
  (tile_warp): TileWarping(
    (disp_up): DispUpsampleBySlantedPlane(
      (DUC): PixelShuffle(upscale_factor=4)
    )
    (build_l1_volume_chaos): BuildVolume2dChaos()
  )
  (tile_update0): TileUpdate(
    (disp_upsample): SlantDUpsampleBySlantedPlaneT4T4(
      (DUC): PixelShuffle(upscale_factor=2)
    )
    (tile_warping): TileWarping(
      (disp_up): DispUpsampleBySlantedPlane(
        (DUC): PixelShuffle(upscale_factor=4)
      )
      (build_l1_volume_chaos): BuildVolume2dChaos()
    )
    (prop_warp0): Sequential(
      (0): Conv2d(48, 16, kernel_size=(1, 1), stride=(1, 1), bias=False)
      (1): BatchNorm2d(16, eps=1e-05, momentum=0.1, affine=True, track_running_stats=True)
      (2): LeakyReLU(negative_slope=0.2, inplace=True)
    )
    (prop_warp1): Sequential(
      (0): Conv2d(48, 16, kernel_size=(1, 1), stride=(1, 1), bias=False)
      (1): BatchNorm2d(16, eps=1e-05, momentum=0.1, affine=True, track_running_stats=True)
      (2): LeakyReLU(negative_slope=0.2, inplace=True)
    )
    (conv0): Sequential(
      (0): Conv2d(32, 32, kernel_size=(1, 1), stride=(1, 1), bias=False)
      (1): BatchNorm2d(32, eps=1e-05, momentum=0.1, affine=True, track_running_stats=True)
      (2): LeakyReLU(negative_slope=0.2, inplace=True)
    )
    (resblocks): Sequential(
      (0): ResBlock(
        (conv1): Sequential(
          (0): Conv2d(32, 32, kernel_size=(3, 3), stride=(1, 1), padding=(1, 1))
          (1): LeakyReLU(negative_slope=0.2, inplace=True)
        )
        (conv2): Conv2d(32, 32, kernel_size=(3, 3), stride=(1, 1), padding=(1, 1))
        (relu): LeakyReLU(negative_slope=0.2, inplace=True)
      )
      (1): ResBlock(
        (conv1): Sequential(
          (0): Conv2d(32, 32, kernel_size=(3, 3), stride=(1, 1), padding=(1, 1))
          (1): LeakyReLU(negative_slope=0.2, inplace=True)
        )
        (conv2): Conv2d(32, 32, kernel_size=(3, 3), stride=(1, 1), padding=(1, 1))
        (relu): LeakyReLU(negative_slope=0.2, inplace=True)
      )
    )
    (lastconv): Conv2d(32, 16, kernel_size=(1, 1), stride=(1, 1), bias=False)
    (upsample): UpsamplingNearest2d(scale_factor=2.0, mode='nearest')
    (relu): ReLU()
  )
  (tile_update1): TileUpdate(
    (disp_upsample): SlantDUpsampleBySlantedPlaneT4T4(
      (DUC): PixelShuffle(upscale_factor=2)
    )
    (tile_warping): TileWarping(
      (disp_up): DispUpsampleBySlantedPlane(
        (DUC): PixelShuffle(upscale_factor=4)
      )
      (build_l1_volume_chaos): BuildVolume2dChaos()
    )
    (prop_warp0): Sequential(
      (0): Conv2d(48, 16, kernel_size=(1, 1), stride=(1, 1), bias=False)
      (1): BatchNorm2d(16, eps=1e-05, momentum=0.1, affine=True, track_running_stats=True)
      (2): LeakyReLU(negative_slope=0.2, inplace=True)
    )
    (prop_warp1): Sequential(
      (0): Conv2d(48, 16, kernel_size=(1, 1), stride=(1, 1), bias=False)
      (1): BatchNorm2d(16, eps=1e-05, momentum=0.1, affine=True, track_running_stats=True)
      (2): LeakyReLU(negative_slope=0.2, inplace=True)
    )
    (conv0): Sequential(
      (0): Conv2d(64, 32, kernel_size=(1, 1), stride=(1, 1), bias=False)
      (1): BatchNorm2d(32, eps=1e-05, momentum=0.1, affine=True, track_running_stats=True)
      (2): LeakyReLU(negative_slope=0.2, inplace=True)
    )
    (resblocks): Sequential(
      (0): ResBlock(
        (conv1): Sequential(
          (0): Conv2d(32, 32, kernel_size=(3, 3), stride=(1, 1), padding=(1, 1))
          (1): LeakyReLU(negative_slope=0.2, inplace=True)
        )
        (conv2): Conv2d(32, 32, kernel_size=(3, 3), stride=(1, 1), padding=(1, 1))
        (relu): LeakyReLU(negative_slope=0.2, inplace=True)
      )
      (1): ResBlock(
        (conv1): Sequential(
          (0): Conv2d(32, 32, kernel_size=(3, 3), stride=(1, 1), padding=(1, 1))
          (1): LeakyReLU(negative_slope=0.2, inplace=True)
        )
        (conv2): Conv2d(32, 32, kernel_size=(3, 3), stride=(1, 1), padding=(1, 1))
        (relu): LeakyReLU(negative_slope=0.2, inplace=True)
      )
    )
    (lastconv): Conv2d(32, 34, kernel_size=(1, 1), stride=(1, 1), bias=False)
    (upsample): UpsamplingNearest2d(scale_factor=2.0, mode='nearest')
    (relu): ReLU()
  )
  (tile_update2): TileUpdate(
    (disp_upsample): SlantDUpsampleBySlantedPlaneT4T4(
      (DUC): PixelShuffle(upscale_factor=2)
    )
    (tile_warping): TileWarping(
      (disp_up): DispUpsampleBySlantedPlane(
        (DUC): PixelShuffle(upscale_factor=4)
      )
      (build_l1_volume_chaos): BuildVolume2dChaos()
    )
    (prop_warp0): Sequential(
      (0): Conv2d(48, 16, kernel_size=(1, 1), stride=(1, 1), bias=False)
      (1): BatchNorm2d(16, eps=1e-05, momentum=0.1, affine=True, track_running_stats=True)
      (2): LeakyReLU(negative_slope=0.2, inplace=True)
    )
    (prop_warp1): Sequential(
      (0): Conv2d(48, 16, kernel_size=(1, 1), stride=(1, 1), bias=False)
      (1): BatchNorm2d(16, eps=1e-05, momentum=0.1, affine=True, track_running_stats=True)
      (2): LeakyReLU(negative_slope=0.2, inplace=True)
    )
    (conv0): Sequential(
      (0): Conv2d(64, 32, kernel_size=(1, 1), stride=(1, 1), bias=False)
      (1): BatchNorm2d(32, eps=1e-05, momentum=0.1, affine=True, track_running_stats=True)
      (2): LeakyReLU(negative_slope=0.2, inplace=True)
    )
    (resblocks): Sequential(
      (0): ResBlock(
        (conv1): Sequential(
          (0): Conv2d(32, 32, kernel_size=(3, 3), stride=(1, 1), padding=(1, 1))
          (1): LeakyReLU(negative_slope=0.2, inplace=True)
        )
        (conv2): Conv2d(32, 32, kernel_size=(3, 3), stride=(1, 1), padding=(1, 1))
        (relu): LeakyReLU(negative_slope=0.2, inplace=True)
      )
      (1): ResBlock(
        (conv1): Sequential(
          (0): Conv2d(32, 32, kernel_size=(3, 3), stride=(1, 1), padding=(1, 1))
          (1): LeakyReLU(negative_slope=0.2, inplace=True)
        )
        (conv2): Conv2d(32, 32, kernel_size=(3, 3), stride=(1, 1), padding=(1, 1))
        (relu): LeakyReLU(negative_slope=0.2, inplace=True)
      )
    )
    (lastconv): Conv2d(32, 34, kernel_size=(1, 1), stride=(1, 1), bias=False)
    (upsample): UpsamplingNearest2d(scale_factor=2.0, mode='nearest')
    (relu): ReLU()
  )
  (tile_update3): TileUpdate(
    (disp_upsample): SlantDUpsampleBySlantedPlaneT4T4(
      (DUC): PixelShuffle(upscale_factor=2)
    )
    (tile_warping): TileWarping(
      (disp_up): DispUpsampleBySlantedPlane(
        (DUC): PixelShuffle(upscale_factor=4)
      )
      (build_l1_volume_chaos): BuildVolume2dChaos()
    )
    (prop_warp0): Sequential(
      (0): Conv2d(48, 16, kernel_size=(1, 1), stride=(1, 1), bias=False)
      (1): BatchNorm2d(16, eps=1e-05, momentum=0.1, affine=True, track_running_stats=True)
      (2): LeakyReLU(negative_slope=0.2, inplace=True)
    )
    (prop_warp1): Sequential(
      (0): Conv2d(48, 16, kernel_size=(1, 1), stride=(1, 1), bias=False)
      (1): BatchNorm2d(16, eps=1e-05, momentum=0.1, affine=True, track_running_stats=True)
      (2): LeakyReLU(negative_slope=0.2, inplace=True)
    )
    (conv0): Sequential(
      (0): Conv2d(64, 32, kernel_size=(1, 1), stride=(1, 1), bias=False)
      (1): BatchNorm2d(32, eps=1e-05, momentum=0.1, affine=True, track_running_stats=True)
      (2): LeakyReLU(negative_slope=0.2, inplace=True)
    )
    (resblocks): Sequential(
      (0): ResBlock(
        (conv1): Sequential(
          (0): Conv2d(32, 32, kernel_size=(3, 3), stride=(1, 1), padding=(1, 1))
          (1): LeakyReLU(negative_slope=0.2, inplace=True)
        )
        (conv2): Conv2d(32, 32, kernel_size=(3, 3), stride=(1, 1), padding=(1, 1))
        (relu): LeakyReLU(negative_slope=0.2, inplace=True)
      )
      (1): ResBlock(
        (conv1): Sequential(
          (0): Conv2d(32, 32, kernel_size=(3, 3), stride=(1, 1), padding=(1, 1))
          (1): LeakyReLU(negative_slope=0.2, inplace=True)
        )
        (conv2): Conv2d(32, 32, kernel_size=(3, 3), stride=(1, 1), padding=(1, 1))
        (relu): LeakyReLU(negative_slope=0.2, inplace=True)
      )
    )
    (lastconv): Conv2d(32, 34, kernel_size=(1, 1), stride=(1, 1), bias=False)
    (upsample): UpsamplingNearest2d(scale_factor=2.0, mode='nearest')
    (relu): ReLU()
  )
  (tile_update4): TileUpdate(
    (disp_upsample): SlantDUpsampleBySlantedPlaneT4T4(
      (DUC): PixelShuffle(upscale_factor=2)
    )
    (tile_warping): TileWarping(
      (disp_up): DispUpsampleBySlantedPlane(
        (DUC): PixelShuffle(upscale_factor=4)
      )
      (build_l1_volume_chaos): BuildVolume2dChaos()
    )
    (prop_warp0): Sequential(
      (0): Conv2d(48, 16, kernel_size=(1, 1), stride=(1, 1), bias=False)
      (1): BatchNorm2d(16, eps=1e-05, momentum=0.1, affine=True, track_running_stats=True)
      (2): LeakyReLU(negative_slope=0.2, inplace=True)
    )
    (prop_warp1): Sequential(
      (0): Conv2d(48, 16, kernel_size=(1, 1), stride=(1, 1), bias=False)
      (1): BatchNorm2d(16, eps=1e-05, momentum=0.1, affine=True, track_running_stats=True)
      (2): LeakyReLU(negative_slope=0.2, inplace=True)
    )
    (conv0): Sequential(
      (0): Conv2d(64, 32, kernel_size=(1, 1), stride=(1, 1), bias=False)
      (1): BatchNorm2d(32, eps=1e-05, momentum=0.1, affine=True, track_running_stats=True)
      (2): LeakyReLU(negative_slope=0.2, inplace=True)
    )
    (resblocks): Sequential(
      (0): ResBlock(
        (conv1): Sequential(
          (0): Conv2d(32, 32, kernel_size=(3, 3), stride=(1, 1), padding=(1, 1))
          (1): LeakyReLU(negative_slope=0.2, inplace=True)
        )
        (conv2): Conv2d(32, 32, kernel_size=(3, 3), stride=(1, 1), padding=(1, 1))
        (relu): LeakyReLU(negative_slope=0.2, inplace=True)
      )
      (1): ResBlock(
        (conv1): Sequential(
          (0): Conv2d(32, 32, kernel_size=(3, 3), stride=(1, 1), padding=(1, 1))
          (1): LeakyReLU(negative_slope=0.2, inplace=True)
        )
        (conv2): Conv2d(32, 32, kernel_size=(3, 3), stride=(1, 1), padding=(1, 1))
        (relu): LeakyReLU(negative_slope=0.2, inplace=True)
      )
    )
    (lastconv): Conv2d(32, 34, kernel_size=(1, 1), stride=(1, 1), bias=False)
    (upsample): UpsamplingNearest2d(scale_factor=2.0, mode='nearest')
    (relu): ReLU()
  )
  (tile_update4_1): PostTileUpdateNoUp(
    (conv0): Sequential(
      (0): Conv2d(40, 32, kernel_size=(1, 1), stride=(1, 1), bias=False)
      (1): BatchNorm2d(32, eps=1e-05, momentum=0.1, affine=True, track_running_stats=True)
      (2): LeakyReLU(negative_slope=0.2, inplace=True)
    )
    (conv1): Sequential(
      (0): Conv2d(32, 32, kernel_size=(3, 3), stride=(1, 1), padding=(1, 1), bias=False)
      (1): BatchNorm2d(32, eps=1e-05, momentum=0.1, affine=True, track_running_stats=True)
      (2): LeakyReLU(negative_slope=0.2, inplace=True)
    )
    (resblocks): Sequential(
      (0): ResBlock(
        (conv1): Sequential(
          (0): Conv2d(32, 32, kernel_size=(3, 3), stride=(1, 1), padding=(1, 1))
          (1): LeakyReLU(negative_slope=0.2, inplace=True)
        )
        (conv2): Conv2d(32, 32, kernel_size=(3, 3), stride=(1, 1), padding=(1, 1))
        (relu): LeakyReLU(negative_slope=0.2, inplace=True)
      )
      (1): ResBlock(
        (conv1): Sequential(
          (0): Conv2d(32, 32, kernel_size=(3, 3), stride=(1, 1), padding=(1, 1))
          (1): LeakyReLU(negative_slope=0.2, inplace=True)
        )
        (conv2): Conv2d(32, 32, kernel_size=(3, 3), stride=(1, 1), padding=(1, 1))
        (relu): LeakyReLU(negative_slope=0.2, inplace=True)
      )
      (2): ResBlock(
        (conv1): Sequential(
          (0): Conv2d(32, 32, kernel_size=(3, 3), stride=(1, 1), padding=(1, 1))
          (1): LeakyReLU(negative_slope=0.2, inplace=True)
        )
        (conv2): Conv2d(32, 32, kernel_size=(3, 3), stride=(1, 1), padding=(1, 1))
        (relu): LeakyReLU(negative_slope=0.2, inplace=True)
      )
      (3): ResBlock(
        (conv1): Sequential(
          (0): Conv2d(32, 32, kernel_size=(3, 3), stride=(1, 1), padding=(1, 1))
          (1): LeakyReLU(negative_slope=0.2, inplace=True)
        )
        (conv2): Conv2d(32, 32, kernel_size=(3, 3), stride=(1, 1), padding=(1, 1))
        (relu): LeakyReLU(negative_slope=0.2, inplace=True)
      )
    )
    (lastconv): Conv2d(32, 16, kernel_size=(3, 3), stride=(1, 1), padding=(1, 1), bias=False)
    (upsample): UpsamplingNearest2d(scale_factor=2.0, mode='nearest')
    (relu): ReLU()
  )
  (tile_update5): PostTileUpdate(
    (disp_upsample): SlantD2xUpsampleBySlantedPlaneT4T2(
      (DUC): PixelShuffle(upscale_factor=2)
    )
    (conv0): Sequential(
      (0): Conv2d(32, 32, kernel_size=(1, 1), stride=(1, 1), bias=False)
      (1): BatchNorm2d(32, eps=1e-05, momentum=0.1, affine=True, track_running_stats=True)
      (2): LeakyReLU(negative_slope=0.2, inplace=True)
    )
    (conv1): Sequential(
      (0): Conv2d(32, 32, kernel_size=(3, 3), stride=(1, 1), padding=(1, 1), bias=False)
      (1): BatchNorm2d(32, eps=1e-05, momentum=0.1, affine=True, track_running_stats=True)
      (2): LeakyReLU(negative_slope=0.2, inplace=True)
    )
    (resblocks): Sequential(
      (0): ResBlock(
        (conv1): Sequential(
          (0): Conv2d(32, 32, kernel_size=(3, 3), stride=(1, 1), padding=(1, 1))
          (1): LeakyReLU(negative_slope=0.2, inplace=True)
        )
        (conv2): Conv2d(32, 32, kernel_size=(3, 3), stride=(1, 1), padding=(1, 1))
        (relu): LeakyReLU(negative_slope=0.2, inplace=True)
      )
      (1): ResBlock(
        (conv1): Sequential(
          (0): Conv2d(32, 32, kernel_size=(3, 3), stride=(1, 1), padding=(1, 1))
          (1): LeakyReLU(negative_slope=0.2, inplace=True)
        )
        (conv2): Conv2d(32, 32, kernel_size=(3, 3), stride=(1, 1), padding=(1, 1))
        (relu): LeakyReLU(negative_slope=0.2, inplace=True)
      )
      (2): ResBlock(
        (conv1): Sequential(
          (0): Conv2d(32, 32, kernel_size=(3, 3), stride=(1, 1), padding=(1, 1))
          (1): LeakyReLU(negative_slope=0.2, inplace=True)
        )
        (conv2): Conv2d(32, 32, kernel_size=(3, 3), stride=(1, 1), padding=(1, 1))
        (relu): LeakyReLU(negative_slope=0.2, inplace=True)
      )
      (3): ResBlock(
        (conv1): Sequential(
          (0): Conv2d(32, 32, kernel_size=(3, 3), stride=(1, 1), padding=(1, 1))
          (1): LeakyReLU(negative_slope=0.2, inplace=True)
        )
        (conv2): Conv2d(32, 32, kernel_size=(3, 3), stride=(1, 1), padding=(1, 1))
        (relu): LeakyReLU(negative_slope=0.2, inplace=True)
      )
    )
    (lastconv): Conv2d(32, 16, kernel_size=(3, 3), stride=(1, 1), padding=(1, 1), bias=False)
    (upsample): UpsamplingNearest2d(scale_factor=2.0, mode='nearest')
    (relu): ReLU()
  )
  (tile_update6): FinalTileUpdate(
    (disp_upsample): DispUpsampleBySlantedPlane(
      (DUC): PixelShuffle(upscale_factor=2)
    )
    (conv0): Sequential(
      (0): Conv2d(32, 16, kernel_size=(1, 1), stride=(1, 1), bias=False)
      (1): BatchNorm2d(16, eps=1e-05, momentum=0.1, affine=True, track_running_stats=True)
      (2): LeakyReLU(negative_slope=0.2, inplace=True)
    )
    (conv1): Sequential(
      (0): Conv2d(16, 16, kernel_size=(3, 3), stride=(1, 1), padding=(1, 1), bias=False)
      (1): BatchNorm2d(16, eps=1e-05, momentum=0.1, affine=True, track_running_stats=True)
      (2): LeakyReLU(negative_slope=0.2, inplace=True)
    )
    (resblocks): Sequential(
      (0): ResBlock(
        (conv1): Sequential(
          (0): Conv2d(16, 16, kernel_size=(3, 3), stride=(1, 1), padding=(1, 1))
          (1): LeakyReLU(negative_slope=0.2, inplace=True)
        )
        (conv2): Conv2d(16, 16, kernel_size=(3, 3), stride=(1, 1), padding=(1, 1))
        (relu): LeakyReLU(negative_slope=0.2, inplace=True)
      )
      (1): ResBlock(
        (conv1): Sequential(
          (0): Conv2d(16, 16, kernel_size=(3, 3), stride=(1, 1), padding=(1, 1))
          (1): LeakyReLU(negative_slope=0.2, inplace=True)
        )
        (conv2): Conv2d(16, 16, kernel_size=(3, 3), stride=(1, 1), padding=(1, 1))
        (relu): LeakyReLU(negative_slope=0.2, inplace=True)
      )
    )
    (lastconv): Conv2d(16, 1, kernel_size=(3, 3), stride=(1, 1), padding=(1, 1), bias=False)
    (upsample): UpsamplingNearest2d(scale_factor=2.0, mode='nearest')
    (relu): ReLU()
  )
  (prop_disp_upsample64x): DispUpsampleBySlantedPlane(
    (DUC): PixelShuffle(upscale_factor=64)
  )
  (prop_disp_upsample32x): DispUpsampleBySlantedPlane(
    (DUC): PixelShuffle(upscale_factor=32)
  )
  (prop_disp_upsample16x): DispUpsampleBySlantedPlane(
…
